RNN_TF20/ch2_parameters.npz (npz, 13666 bytes, 4 tensors)

W_h (column-major) f8 [128, 2]
000000 41 22 fa 4d 7f d3 dc bf 01 3c 51 39 11 78 db bf
       -0.4504087697501156 -0.42920332524676047
000010 75 bb 42 1d db d3 d2 bf e8 22 8f 21 28 26 e3 bf
       -0.29418065888869843 -0.5984078078700721
000020 4d d1 75 a9 5e 74 0b 40 37 0b 4a ad 08 bc d1 bf
       3.431821178348548 -0.277101678111808
000030 08 03 6d 09 fc 52 e1 3f 08 52 01 c2 b2 f3 90 3f
       0.5413799461458391 0.01655463513482583
000040 dd d0 2a bd 94 15 e0 bf 8d 8f 5b 87 2d c9 e5 3f
       -0.5026344008133737 0.6808078426079064
000050 ee fd 8d 66 e3 62 ba 3f 40 fe dd db e9 fd b7 3f
       0.10307141546035556 0.09371816270685773
000060 0d fb 1f 43 23 48 e5 3f 56 7a 31 14 61 ea 8c 3f
       0.6650558768304521 0.014118917874097619
000070 5c a7 9c 42 ba 4f c4 3f c6 d6 53 22 db f2 c0 bf
       0.15868309261832791 -0.13241137672564757
000080 33 91 8e 14 2a cd db bf b5 b5 e9 31 d4 77 f4 3f
       -0.43439723975668015 1.2792550992702278
000090 8e b1 5e b8 f8 53 e1 bf 70 7e 6c e5 a6 94 e3 3f
       -0.5415004349684283 0.6118959885533979
0000a0 c7 7c bf 79 7a 75 d7 bf c0 7c 8a a3 a8 6a b0 bf
       -0.36654531373455906 -0.06412748329829565
0000b0 53 7c d1 85 1d 31 04 40 f6 93 6c e8 59 ac c8 bf
       2.5239820913844055 -0.19275974129519086
0000c0 f7 fb 78 5b e9 31 df 3f 80 82 b1 67 bf 3c cb 3f
       0.48742135937567305 0.21279137194780517
0000d0 36 f6 1e 03 e9 c7 d8 bf ec 1e a7 f6 0b 3b d6 bf
       -0.3872015505292866 -0.34735392653645536
0000e0 71 30 3a 90 bc 2b ff 3f 16 bf c7 eb e7 7e eb 3f
       1.948177874935052 0.8592414479335015
0000f0 af 75 67 76 08 33 d7 3f dc 24 c6 f3 dd ab c5 3f
       0.3624898105898308 0.16930746462848034
000100 cc 41 9f 15 a9 8b df bf 5a 78 e1 ec b2 79 01 c0
       -0.4928991995957659 -2.1844233042057057
000110 5b a1 69 74 65 a9 e5 bf cc 16 ad 0c 24 45 cc 3f
       -0.6769282602008774 0.22086001032783142
000120 52 42 71 a2 34 f2 ea 3f 79 d9 1e 0c 68 58 e2 bf
       0.8420661137298089 -0.5732918011406546
000130 67 fa e2 75 b5 dc d1 bf c1 9b 4f ee b8 c3 c3 3f
       -0.27909599792830025 0.15441047321584558
000140 74 4e 93 9c dd 9f dd bf df ff e6 5a 6a 77 bf bf
       -0.46288242617195086 -0.12291588515563444
000150 4a 1c 5d d5 dc bc bc 3f 32 29 1f b5 ef ad dc 3f
       0.1122568150432112 0.44811623275440404
000160 72 8d 45 c7 f9 d3 d4 3f 12 14 cd b3 e8 4c da bf
       0.32543796978116923 -0.4109441524381633
000170 cd be ef 23 10 47 dc 3f 06 3b ad 9f 68 4e e3 bf
       0.4418373442594941 -0.6033213728604501
000180 82 55 96 e0 1e 60 c0 bf 3a 0d 48 a0 e7 ca d7 bf
       -0.12793336836027086 -0.37175932552800683
000190 9c 7e 92 a1 87 0a d8 bf e9 e3 31 af d2 c4 d1 bf
       -0.37564268854655736 -0.27763812168956165
0001a0 27 18 5c 82 3f 0d ca bf 43 c5 d7 96 60 9e d5 3f
       -0.2035292994043527 0.33779158335444864
0001b0 40 69 44 bf 82 e7 c0 bf ba 22 87 b3 9e 3c db bf
       -0.1320651468202616 -0.42557494670885954
0001c0 5d e4 94 04 3e 3e e1 bf ae 84 2b 98 e4 ff b9 bf
       -0.5388479318127214 -0.10156086649978377
0001d0 be 5a d7 24 3f da 04 40 14 c3 37 5e 91 30 9f 3f
       2.6065657499524084 0.03045870912132205
0001e0 f2 ef b2 75 64 2d c6 bf 6a 21 e0 f2 57 2b e0 bf
       -0.17326026675243572 -0.505290960661154
0001f0 58 68 c4 99 2f 5c d9 bf a5 c2 17 a9 ff 0f d9 bf
       -0.39625158325509835 -0.3916014815613756
000200 0f 2a f6 3f a1 3d dc 3f ab a6 d2 10 c5 b3 a4 3f
       0.441261589491348 0.04043403463704228
000210 90 b2 c8 51 6c 53 e1 bf 8f e6 49 df f2 61 d7 3f
       -0.5414334866851096 0.3653533154061756
000220 36 4d 31 69 2d eb de 3f 53 be f4 d8 91 70 ec 3f
       0.4831040885230381 0.8887414205000347
000230 48 36 cd d1 85 8a 88 3f 54 81 ea aa fb 8f da 3f
       0.011982961144577989 0.4150380295850671
000240 d6 62 56 37 a3 73 d7 bf 3b 87 78 1f f5 05 e2 bf
       -0.3664329567341559 -0.5632272352852178
000250 80 e1 a0 a8 53 89 bf 3f 34 c5 94 e7 40 72 e0 bf
       0.12318919054894728 -0.513946964556601
000260 65 41 13 fd b4 61 d5 bf 25 93 58 f5 54 86 e2 3f
       -0.33408856119515057 0.578897933188817
000270 82 f1 58 4c db b2 c4 bf 16 8d d3 a6 09 0a ff 3f
       -0.16170827129270654 1.9399506107955111
000280 0e 8e 9e 52 4c fe b8 3f d5 4f 72 f1 e0 d8 89 bf
       0.09763028161119555 -0.012620694511760103
000290 83 87 b3 bc cd 21 e1 3f 56 fb 39 a3 9b 91 c3 bf
       0.5353764234134676 -0.15288110227626345
0002a0 fc 62 8e 51 71 85 b6 3f fe cd cf 9c 49 53 a4 3f
       0.08797367325895417 0.039697933570916874
0002b0 b5 12 04 bd 9c fc e6 3f 5d 78 16 87 2f 07 d9 bf
       0.7183364574162484 -0.39106357757726135
0002c0 90 af 83 20 ad a6 de bf 6f 50 44 95 17 8c 93 3f
       -0.4789231126330771 0.019089096532369284
0002d0 b8 27 c2 8b a7 fe ad 3f 54 1c 65 5b 13 b8 b3 3f
       0.05858348446879752 0.07702752095529891
0002e0 d7 8c 5c 40 51 19 f9 3f 05 19 a9 ed 5d 15 e0 3f
       1.56868100300999 0.5026082650954612
0002f0 9b cb 86 ee e4 0f d0 3f 61 96 b6 05 f9 c3 b8 bf
       0.2509701089249405 -0.09674030675395208
000300 70 4c 08 d9 ea 60 f2 3f 33 86 cb dd 38 50 d3 bf
       1.1486614682987941 -0.30177137050313546
000310 d8 9c b3 8b c2 8d dd 3f 99 22 0e 26 ab b5 e1 bf
       0.46177734034286066 -0.5534263365999151
000320 c1 29 41 4e 2b 2c df bf 73 61 04 2a 24 6f de bf
       -0.48707087175412417 -0.47553352454408254
000330 c4 10 91 f2 e3 99 c4 3f e6 20 89 08 29 1a c3 3f
       0.16094636291575715 0.1492358485868472
000340 33 47 79 13 bf 52 d0 3f cb 25 5d 86 e2 94 c4 3f
       0.25505043889744455 0.16079360542998553
000350 f3 f2 65 d3 0d 48 e0 bf 3d 49 49 13 9d 06 ef 3f
       -0.5087956551429599 0.9695573212323222
000360 8a 3a 8b e3 51 4d e5 3f 4e 41 a9 d3 55 75 db bf
       0.6656884617057852 -0.42903657598528333
000370 5e 7c 21 69 f0 e7 da bf cd 93 61 cc 9b a6 da bf
       -0.4204064394634254 -0.4164189811620503
000380 e0 98 92 31 8e 2a da 3f c9 de 32 4f e3 3e e0 bf
       0.40884737816885597 -0.5076767489290087
000390 e2 de 14 68 5a f2 c9 3f 2c 49 26 9d 13 38 d6 bf
       0.20270853120904692 -0.3471726450599302
0003a0 3d dd 62 ee 3b e5 bc bf 29 66 15 5f 43 e9 d9 bf
       -0.11287283487296391 -0.40486225400454373
0003b0 12 16 41 d6 a7 30 c9 bf 06 d1 5b d4 e1 43 a7 3f
       -0.1967973514712616 0.04543977467793252
0003c0 dc 8a 5d db ff 51 d1 3f 15 ce 70 e1 21 87 f8 3f
       0.2706298486938701 1.5329912954592875
0003d0 21 f6 31 a4 69 0a a9 3f 39 65 17 0b dd 21 dc bf
       0.04890756730399582 -0.43956686099189174
0003e0 53 49 d3 60 ec be cc bf 75 34 29 78 b6 df d7 3f
       -0.22457651832389533 0.37302934393375803
0003f0 a0 96 77 5c 05 d7 e8 bf c2 19 80 b3 cb 04 d3 bf
       -0.7762476736067647 -0.2971677067693258
000400 e5 06 19 1d 74 96 db bf 5a 58 93 14 dd 48 c0 bf
       -0.4310579570920779 -0.1272236204592357
000410 cc 4f 85 49 3c 17 c6 3f c2 06 4b aa 8d 99 85 3f
       0.1725840910900146 0.01054678607886517
000420 14 a7 dd 87 87 8d c4 bf 78 e0 e4 3c f5 fe d3 3f
       -0.16056913503717196 0.3124363989513834
000430 4e e2 b7 4a a7 27 d4 bf d7 c5 09 6c d5 fb d6 3f
       -0.3149202565832966 0.35912070799449
000440 ef b7 07 24 3b 7a b4 bf 29 56 56 0c 3a 20 d0 3f
       -0.07999009732858985 0.2519669647675494
000450 f7 f4 0a a8 5d 1a dc bf 83 8b b9 f3 e1 bc db bf
       -0.43910924349240993 -0.43340348054169214
000460 6a 52 06 f4 56 af c9 3f e2 7f 61 fb 2d ea db bf
       0.20066344180363 -0.43616818951522707
000470 6d 8d e7 a1 a6 c9 db bf 10 bc 00 f4 19 a2 d1 3f
       -0.43418279467569826 0.2755188830223583
000480 87 b6 f9 f3 7a 79 d0 bf 2f 67 24 70 fb 02 f0 3f
       -0.2574145681927366 1.0007280712656657
000490 29 e7 a3 1b 59 79 d0 bf 7e 01 b6 ba eb 2f d1 3f
       -0.2574064989017751 0.2685498545979711
0004a0 03 d6 0d d9 e7 57 d1 bf e1 bd 16 ea 94 fb e4 3f
       -0.27099033543285617 0.6557106563613467
0004b0 6f a3 f2 36 c2 a2 08 40 b0 c1 cc 4d 26 ee d5 3f
       3.079471997527825 0.34266049955024425
0004c0 f0 11 b9 93 6f 09 ec bf 6f d3 35 fe 6a 07 d3 bf
       -0.8761518368924595 -0.29732775521488625
0004d0 49 33 8e 63 f0 0c b5 3f e3 77 f5 31 63 7a 07 40
       0.08222868376306026 2.9347595122371657
0004e0 69 8d 63 fe 9c 1b 84 3f c7 f1 9d 86 90 76 e9 bf
       0.00981829310734979 -0.7957232121694283
0004f0 84 47 51 17 77 e6 d3 3f 68 ed c4 68 4e af db bf
       0.3109414794645249 -0.4325748465668853
000500 a7 db 29 1f 98 9f b3 3f 6f 89 87 a0 29 b9 e1 bf
       0.07665396462276296 -0.5538528571453706
000510 5d 5e 0f 2b f9 10 e8 3f a4 49 b4 e9 d1 5d db bf
       0.7520719376579553 -0.4276013166683248
000520 66 0e 57 d1 58 e5 fc bf a8 b0 d2 a4 6f a6 d3 3f
       -1.8059929063173512 0.3070334539031685
000530 e3 3d 59 4e a6 7b de 3f 4b 5d f4 3a 1d 44 d3 bf
       0.47629697467070126 -0.3010323596694959
000540 ca 51 80 f1 99 49 ba bf 18 87 7e 3e 93 48 d7 3f
       -0.10268556734110415 0.3638046369834327
000550 f8 da 9c 1c 64 43 db bf 4c fd 04 77 5e cb d6 3f
       -0.4259882239743287 0.3561626589107234
000560 62 00 f5 95 e7 b6 d0 3f 99 ab c8 8f d4 91 c3 bf
       0.2611636127876463 -0.152887888152091
000570 c0 bb 98 32 6e 1d ce 3f 45 0a c2 cd 7a cf f5 3f
       0.23527314634836038 1.363154224149768
000580 69 4e 89 bf 26 55 d6 3f 98 68 33 ff b2 56 e9 3f
       0.348947226569385 0.7918333992377198
000590 87 c8 a0 fd 92 69 d5 bf dd 7d 5b 52 50 79 e1 bf
       -0.3345687367283365 -0.5460588081877479
0005a0 d9 a5 a2 9c 69 30 e1 3f f1 a1 60 af 58 2a a1 bf
       0.5371597346576734 -0.03352620259130735
0005b0 ac 49 bf d1 f2 3d d4 3f 02 b5 f6 ec 2d 05 d4 bf
       0.31628103716971157 -0.31281612530695224
0005c0 39 59 b3 60 e6 e6 a0 bf 4f c7 47 74 ac 51 db 3f
       -0.03301162653376583 0.42685996394640296
0005d0 65 10 1c 99 af 44 e5 3f d2 51 d4 79 11 59 d9 bf
       0.6646345129415862 -0.3960612954845405
0005e0 65 af 18 40 0f 55 d9 3f f3 90 c7 af 38 4a b1 bf
       0.3958166242543853 -0.06753877917759947
0005f0 60 b0 36 36 4b 30 d5 bf 6d 3a 92 90 fb 51 dd bf
       -0.33107261938380894 -0.4581288253620304
000600 0f ea de f2 1e 16 e4 bf 21 55 95 52 f8 96 e0 bf
       -0.6277003043717871 -0.5184289563136738
000610 06 f2 f7 51 ea e9 d5 3f 71 41 17 37 9b d7 d7 3f
       0.34240205769290843 0.37253456478085584
000620 14 08 d7 f0 ec 79 d5 3f 26 55 ad a0 ed 36 e8 bf
       0.3355667449906161 -0.7567051065658787
000630 d7 4f 6f 96 4c 79 e1 bf 7c 70 40 7d 5e 83 c6 bf
       -0.5460570276431963 -0.17588406673246826
000640 80 f4 a4 ee 11 c9 cc bf 26 58 e5 f7 8a 9c c8 3f
       -0.22488617088848528 0.19227730850497088
000650 f9 4f a0 9e 36 39 d3 bf 39 35 06 15 c5 80 b6 bf
       -0.30036702624170136 -0.08790237201011032
000660 97 84 e5 88 b2 c8 da 3f a1 a9 fb 46 99 be 9b 3f
       0.4184995972519316 0.027094263989889126
000670 c9 83 a4 c2 38 36 df 3f 8d ce 97 2b c3 6e c1 bf
       0.48768443115301047 -0.1361926997047828
000680 db a9 9c d5 fd 53 d8 bf a4 7c 93 dd 23 fd df 3f
       -0.3801264368109096 0.4998254455403617
000690 b7 8d 01 40 02 47 e2 3f fd ce a7 52 bb 58 e1 3f
       0.5711680650824097 0.5420815100064541
0006a0 3b d7 57 2c 59 c1 d7 bf bb 4d 18 1a 82 80 dc bf
       -0.3711760457075461 -0.44534351871808625
0006b0 83 50 17 27 05 ba eb bf 7e 7f 92 c3 36 46 ca bf
       -0.8664575351235871 -0.2052677588408151
0006c0 1e 30 cb 57 1e 3b d7 bf 85 35 36 3e 6f 8a dd bf
       -0.3629833085403805 -0.4615743739639913
0006d0 aa 3f e9 d8 79 b7 d8 bf 74 8b 49 d6 ee 1a de bf
       -0.3861984842560512 -0.47039385725491134
0006e0 34 cd 36 f0 f7 95 db 3f 5e 74 40 92 4b d9 d9 3f
       0.43102835138707296 0.40388764650726283
0006f0 25 1a a5 a1 64 33 e2 bf fb be 17 27 e5 18 d6 3f
       -0.5687735707404654 0.3452694780125822
000700 0a ac 6a 39 ee f8 03 40 01 0e 92 b5 7d 12 f0 3f
       2.496548126762268 1.0045144169424705
000710 2a aa 93 82 15 37 a4 bf c0 66 c6 e4 a9 d1 e7 3f
       -0.03948275774913086 0.7443437069188903
000720 3e 9c 56 d7 61 46 f9 3f 45 f5 5f 76 b4 27 c8 bf
       1.5796831523564516 -0.18871169834157278
000730 fa 62 c8 4a a7 02 e6 bf f8 2f ec e4 96 03 d9 bf
       -0.6878239117241656 -0.3908440814564069
000740 18 5e 36 e6 90 35 e0 bf 80 83 8b a8 36 c0 d9 bf
       -0.5065388199172416 -0.4023567815730118
000750 13 98 de 81 3b 85 c6 bf 04 9d 96 6a 8b bf e8 bf
       -0.17594093171391076 -0.7733819085887323
000760 6a 36 57 44 a1 60 c2 bf 8d d3 53 ed e2 9c c7 bf
       -0.14357391201922393 -0.18447529400114285
000770 0d 94 5e f6 3f 04 cc bf 75 a8 bb 6a 01 bc d7 bf
       -0.21887969522245534 -0.37084994719646797
000780 4c df d6 13 77 25 c1 bf 3d 15 66 e6 67 a1 cc 3f
       -0.13395584553449635 0.22367571592273264
000790 be 35 3b 43 d4 60 d5 bf 4a 3f bb fd 8e 6c cb 3f
       -0.3340349823527865 0.21425044430952261
0007a0 81 b9 2a c9 db b5 d3 3f 1a 64 7c 6b 08 74 d0 bf
       0.307974764301342 -0.2570820855776802
0007b0 50 04 0a 8e ce fe da 3f 3b 1c 8e 40 25 3e df bf
       0.4218021761990416 -0.4881680612965657
0007c0 e6 d6 db 65 e7 67 d8 3f 11 8e 78 de c8 50 10 40
       0.38134179064887375 4.0788912545281315
0007d0 3e d5 d8 d7 69 f6 db bf 0a 3d 18 5d c4 c9 d3 bf
       -0.436914883411493 -0.30918988314893225
0007e0 fb 4c 8f 16 cf c5 db 3f 27 fd 72 1f d0 b9 d7 3f
       0.4339482994375456 0.37071612426003003
0007f0 95 85 27 e9 38 25 b3 3f a4 b6 94 51 2e cc dc 3f
       0.07478671734090477 0.44996221510778356

b_h f8 [128]
000000 e2 78 fe 04 43 84 ee 3f ec 5f 57 fa a1 cd eb 3f
       0.9536452386417091 0.8688516511419926
000010 89 d9 08 5e 63 e2 d1 3f 36 9b aa c0 3c f0 d0 3f
       0.27944263632834826 0.2646629220493425
000020 46 f1 8e 9e 70 ba ec bf fe 30 e6 41 62 8c e3 3f
       -0.8977587792246957 0.6108866965383013
000030 8b 94 a9 6a cb 8a f1 3f b5 be 2b 22 1c c8 e5 bf
       1.0963853994847195 -0.6806774775886512
000040 b2 1c 71 9f f6 0a f4 3f f5 68 9d 52 97 11 d1 3f
       1.252676604098991 0.26669867580279966
000050 d1 f0 88 b1 d3 9e f4 3f 8b 6f a8 82 c4 40 d7 3f
       1.2887761053998938 0.36332810172620417
000060 b1 f5 09 be 84 64 e4 3f 69 73 e6 0f 49 c6 f6 3f
       0.6372703277299278 1.423409521207953
000070 9d 1e d4 72 d2 2e ea 3f 07 b3 a1 6d a5 c3 cd bf
       0.8182155840631428 -0.23253314831836056
000080 f5 83 06 db 82 5f f7 3f 89 07 c1 19 d3 e8 c2 3f
       1.4608181529695206 0.1477302432777459
000090 d8 0c 69 91 a0 ec fc 3f 52 0b 67 35 df 7c dd bf
       1.8077703170863995 -0.4607465764531088
0000a0 bd 87 f8 18 8f 24 f0 3f 5c 0e bd c4 5c 59 f3 3f
       1.008925530950804 1.209316986570136
0000b0 cf 41 81 e9 52 b9 c9 3f 53 20 3c 2f 85 fa d6 3f
       0.20096813584906534 0.3590405427244196
0000c0 98 6b 75 b3 0f 34 f7 3f ac 32 17 eb 3e fa d6 3f
       1.4502102861503996 0.35902378995960293
0000d0 7a fd c6 89 20 80 e7 3f c5 16 2e ee e7 5e d4 3f
       0.7343905154192918 0.3182926012017158
0000e0 ff 58 f9 9d 84 92 e1 3f c8 97 59 fd 97 43 e9 3f
       0.5491355023794141 0.7895011852494855
0000f0 d9 2f 41 a9 92 c4 e6 bf a4 73 b7 34 f7 74 fd 3f
       -0.711495714736425 1.8410560664408218
000100 a7 ba 84 1f 1d b9 e5 3f 5b f8 27 ff 80 17 e0 bf
       0.6788468947978189 -0.5028691276090841
000110 54 6b 18 36 06 48 d5 3f e5 65 fb a6 29 06 db bf
       0.33252101214173035 -0.42225114161337124
000120 ab 1c 55 3c 62 69 d1 bf 71 08 17 4b b0 e7 f3 3f
       -0.272057112615992 1.2440646107866338
000130 32 0a c6 e9 50 c2 f4 3f 72 7c bd a6 a7 ac c6 3f
       1.2974404460698108 0.1771440090333019
000140 01 a7 33 7e b1 c5 f1 3f 32 64 cb 93 68 c8 c2 bf
       1.1107649736172223 -0.1467409822132893
000150 cc 80 d8 0d 42 bf f8 3f f2 af 08 f2 7f 35 e8 bf
       1.5466938534591916 -0.7565307357049262
000160 4f 6e 73 9b b7 c3 e4 bf 02 23 43 04 72 ac e1 3f
       -0.6488912616873196 0.5523004611250999
000170 c4 06 db 2a d8 68 e7 bf 4d bc 05 e5 e0 9c 8c bf
       -0.7315483891508952 -0.013971096982201692
000180 bd f0 0a bf 9d 23 e0 bf bc 52 f5 a8 eb b5 e2 bf
       -0.5043476802161632 -0.5847070980040239
000190 66 16 ed dd f1 98 f4 3f e5 7d 67 62 80 72 f9 3f
       1.287340037249487 1.5904544681469528
0001a0 73 e7 b4 25 e1 cc f1 3f bf 20 09 b7 d0 3c dc bf
       1.1125194046894336 -0.44121187090469144
0001b0 94 f1 9f 06 34 29 d0 3f 15 fa 04 7e d1 12 f2 3f
       0.2525148453421704 1.1295943186411297
0001c0 2c f6 27 ae 06 00 ec 3f d4 3d 4b b5 26 d3 de 3f
       0.8750031854139642 0.4816376467178689
0001d0 99 aa 46 34 ab 33 d5 3f b3 28 b7 c3 75 ab e5 3f
       0.3312786112316331 0.6771801779334709
0001e0 bc 22 d9 57 2b cf e0 3f d0 c1 f6 24 7f 5b f5 3f
       0.5252892223153007 1.3348380512144224
0001f0 64 3a 3c ff d9 5a f7 3f 26 db ab 80 f4 0e 00 40
       1.4596805544021203 2.007302289242392
000200 ab ec 53 90 7b bc d9 bf 12 f2 08 bf 7d 32 fe 3f
       -0.40212906927599573 1.8873269522001732
000210 5c 1e e4 cb 3e 6b f2 3f 42 3f 53 69 55 b1 cb bf
       1.1511829342361102 -0.21634929316359758
000220 30 0a f3 c2 16 a6 ec bf 68 a7 28 2e e7 73 e3 3f
       -0.8952745254139867 0.6078983212985181
000230 a1 39 72 e1 ce 03 f9 3f 5d d5 0c 9c 8b f8 dc 3f
       1.563429718636691 0.4526700042655046
000240 0a 3e af ec ea 1a f0 3f d9 70 55 b2 9c dd f1 3f
       1.0065716977586612 1.11660451566336
000250 4d 0d a0 a6 21 13 e0 3f ea fb 13 e1 a0 88 e8 3f
       0.5023353819273467 0.7666782756858741
000260 c6 80 49 ee 2b 8d d3 3f 2d 11 f7 8c 0b 4a e0 bf
       0.30549143095232656 -0.5090387109017108
000270 d6 88 9c 3f 4e 23 e9 3f bf 2b ba c3 c4 03 d7 3f
       0.7855597727214227 0.3596050177954417
000280 12 1b 95 12 0e be f1 3f 89 6f dd 12 22 38 f6 bf
       1.1089001394154292 -1.3887043702042965
000290 46 99 e9 12 5d 72 cd 3f f8 09 4b ce 1e e0 ea 3f
       0.230052599176995 0.839858439365627
0002a0 3a ec 11 e2 1b 02 f5 3f 3d ae 7b 0a 7c 1c f6 3f
       1.313014872632961 1.3819542321679272
0002b0 88 26 5c de e5 d8 f5 3f 71 2a 6a 86 69 9e e9 3f
       1.3654535947738697 0.8005874276435191
0002c0 6e 8e 1a a2 0f ae fc 3f 2c 32 8f 98 0d 51 ed 3f
       1.7924953777482204 0.9161441783595072
0002d0 a4 6c bd 31 15 2c f4 3f d8 61 58 92 5e 14 e7 3f
       1.2607623999563566 0.721236501532128
0002e0 3c b1 75 d0 6a 68 f0 3f 9a bd ed 60 3a e7 ee bf
       1.0254924910505698 -0.9657260792864009
0002f0 70 c4 31 e5 1f e0 ca 3f 17 fa 37 e6 4a fc d2 bf
       0.20996473971493712 -0.2966487167576885
000300 b3 4c e4 6e fd 30 c1 3f 6f 35 c0 27 c1 2e eb bf
       0.13430755533827252 -0.8494573379881966
000310 03 c9 94 82 58 f7 e1 3f 7b 28 f0 dc a4 c5 df bf
       0.5614435720838461 -0.49643823219287925
000320 29 37 63 2f b5 88 f1 3f 9d ea bf bd a4 1b e7 3f
       1.0958759165836887 0.7221244531677545
000330 72 ec e3 d4 48 69 f3 3f e1 96 c6 b0 99 8e ef 3f
       1.2132042232540496 0.9861572697306792
000340 c3 a0 c5 b3 3d 5b f1 3f 6c 1d b7 f4 8a 1e 93 bf
       1.0847756407111298 -0.01867119902251828
000350 5c 0e bf 9e c0 ad f1 3f ae 1d 08 21 59 66 d0 3f
       1.1049200249698492 0.2562468359542106
000360 18 f3 57 e7 d1 16 ea 3f 8d 0c 20 d6 be 2b cf 3f
       0.8152856367520114 0.24352250533420197
000370 6e 3c ea e9 1b 0b f4 3f 15 60 19 2d 78 e3 f5 3f
       1.2527121674827657 1.3680345308002917
000380 2d 73 86 32 c6 8c d4 3f 9a 2b e6 07 68 ab e3 bf
       0.32109217580891675 -0.6146736292151787
000390 2b a3 ad 79 99 a6 e1 3f 7f 92 ae ec 0d ac eb 3f
       0.5515868546036463 0.8647527334874922
0003a0 49 47 70 f4 6f 54 e6 bf a2 b0 20 9a 77 af f6 3f
       -0.6978072904769103 1.41783867078906
0003b0 39 0f 83 5f 8d 64 e4 3f 75 f9 7d de 29 b2 f7 3f
       0.6372744431941789 1.4809969607445883
0003c0 91 2c d3 a9 e5 76 ee bf 69 2c d4 11 62 7d d1 bf
       -0.9520138089077524 -0.27327777615636833
0003d0 90 e6 68 59 10 c3 e2 3f db 5c 1e 16 56 ea fb 3f
       0.5863115068707021 1.7447110046394332
0003e0 30 f6 ba 97 2b 89 e8 3f 15 de 12 b2 55 95 da bf
       0.7667444194300455 -0.4153646697045315
0003f0 f3 8f 43 58 81 31 dc 3f c4 1f ba 51 08 a5 f5 3f
       0.4405215608551309 1.3527911369765073

W_o (column-major) f8 [10, 128]
000000 c1 18 fe 41 fa 8b d2 bf ac 64 40 0b eb 21 e3 3f
       -0.28979355282389113 0.5978903980022969
000010 0a 3b ac 94 7d 83 e2 3f 87 47 f5 de 54 a3 d4 bf
       0.5785510925069002 -0.32246896527532737
000020 fb ce 18 24 30 ac a8 3f 5e 8b fc 75 2e 60 d7 bf
       0.0481886905730828 -0.3652454521381311
000030 e6 dd e0 47 8b fd e9 bf 7b 26 bd 3b 59 62 e4 3f
       -0.8122002033114171 0.6370054404043936
000040 05 20 2b 12 d7 1a f6 3f 81 85 2a e8 43 f3 f7 bf
       1.3815527639108052 -1.4968909329403177
000050 b7 f6 ec cd 57 53 b7 3f f2 55 60 ab 5e b4 c9 3f
       0.09111546304208216 0.20081694953903156
000060 99 12 f7 bb 34 f6 a3 bf 9f 0d 78 1a b9 4d c0 3f
       -0.038987777657472474 0.12737191955976088
000070 06 8d ef c2 07 ba f1 bf 90 bd ec 9c 93 bb b0 3f
       -1.1079175581624567 0.0653621919743641
000080 61 6f 5d a7 8d 65 b6 bf 73 69 7f 06 ae a7 da 3f
       -0.08748708091792202 0.41648436197797095
000090 e5 00 a3 06 b2 e1 ea 3f fa 7c 9c 34 72 2a f2 bf
       0.8400507096885376 -1.1353628211143687
0000a0 26 14 58 d0 1a 80 aa bf 5f 98 65 5c f2 cc b4 bf
       -0.05175861161482258 -0.08125223880560516
0000b0 fc 04 e4 8c cb 8a c3 bf 7f e2 46 a0 79 a6 d2 3f
       -0.15267319087437403 0.29141083385506045
0000c0 d9 71 45 49 34 1c f7 bf 34 a7 d6 df 36 b2 c5 3f
       -1.4443858015211986 0.1695011704408046
0000d0 9b dc 60 3f 06 31 b4 3f 0e 85 81 19 2f 5b dd 3f
       0.07887305304835694 0.4586904286462222
0000e0 b8 6a 2c fb d8 19 ef 3f 11 b3 de 78 c9 6a bc bf
       0.9719052224857796 -0.11100444031644609
0000f0 fd 92 74 b2 b1 3e b0 bf 81 96 4e 6c 4e b6 d5 bf
       -0.06345663649387841 -0.3392520959554091
000100 36 c4 69 a0 91 44 c9 3f 14 86 be 9d 42 88 dd 3f
       0.19740505535767888 0.46144166378698626
000110 9f af 5a 5c 8f 49 00 c0 4b 70 53 b0 22 d0 f0 bf
       -2.0359179701972177 -1.0508143317920424
000120 c2 8c 6c f2 57 2d 94 3f 68 46 cb eb 49 6f ea 3f
       0.019704221888912306 0.8260850530006794
000130 60 b8 39 8f 17 6c e3 3f 83 41 dd 77 8a 1c f1 bf
       0.6069448277828648 -1.0694679910849068
000140 e0 70 d9 46 8a 1b ea bf 86 e7 52 19 5b a8 99 3f
       -0.8158618339325834 0.02505628912033544
000150 c7 9e b4 11 3a c0 e7 bf 23 4f af 5c fb d5 a6 3f
       -0.7422151895343284 0.04460130220800653
000160 eb 0d d7 e8 63 39 dd 3f 29 e4 68 fb 15 e7 d5 3f
       0.4566278241947816 0.3422293620274695
000170 4e bd 5c 49 36 c9 eb 3f 0c 45 7a 14 4b 06 e4 bf
       0.8683120186669073 -0.6257682228043975
000180 b0 b2 4e 56 c0 f8 f1 bf b2 f4 6b 96 91 59 d9 3f
       -1.1232303019889223 0.396091839691347
000190 b2 90 e4 14 6a a6 c5 bf d0 69 7d 15 7d 40 c5 bf
       -0.16914106388242584 -0.1660305361682064
0001a0 c6 78 b7 c6 c0 67 87 bf 6c e5 5c e6 48 55 ce 3f
       -0.011428361954071053 0.2369776844805459
0001b0 cb df 7c 5c e6 af f9 bf d1 84 05 97 7e c1 ca bf
       -1.6054442990116395 -0.20902998327350145
0001c0 c9 ef 81 ab 94 cd c0 3f 3e 1f 96 ab 9f 2f e0 3f
       0.13127382635491205 0.5058134414002564
0001d0 a7 f4 ed 74 3a 37 e0 3f cb 04 e5 d2 2e e9 a0 bf
       0.5067417415408685 -0.033029044383974325
0001e0 a9 2f b9 ff 31 52 c3 3f d3 24 a2 39 cf 3e c3 3f
       0.15094590174191794 0.15035429300431832
0001f0 a2 94 13 ca 6f 77 cc bf f3 4b ae c6 61 5a f3 bf
       -0.22239491812721207 -1.209565902802521
000200 3e 07 8d b6 1b 37 db 3f 1f a4 37 76 39 fc d1 3f
       0.42523854090915225 0.28101955933249373
000210 90 33 59 71 82 ea e8 bf d7 ba d8 2c b4 05 f1 bf
       -0.778626653083494 -1.0638925315685606
000220 c7 c0 e6 fe 49 37 14 c0 a3 34 ab 9b 56 9b c2 3f
       -5.053993208726928 0.1453655490971971
000230 97 eb 46 dc 3d 97 c6 bf 9b 01 b2 db ea c5 e3 bf
       -0.17649052863802403 -0.6179098406719733
000240 5f a6 82 b6 4b e9 cc bf e3 50 07 a4 cc 67 b0 3f
       -0.22586962138784636 0.06408385281185107
000250 89 8f 0b d8 9e b7 da bf c3 2f 19 60 99 ab b2 bf
       -0.4174573049369817 -0.07293089481498698
000260 02 78 e5 45 59 16 9d 3f fc 69 6a 3f f4 7f fd bf
       0.028405566111693765 -1.8437387921500195
000270 99 39 67 63 84 cc e4 3f 51 99 9d bf 82 1c e2 3f
       0.6499654714078132 0.5659803144924728
000280 c9 88 b7 1f 17 05 b2 3f df 09 7a 76 33 38 a4 3f
       0.07039017223681578 0.03949127980469646
000290 8f d3 9e bf 20 a7 db 3f 8a 0f 4e 55 c8 c5 d6 3f
       0.4320756789487001 0.3558216889434723
0002a0 22 93 31 09 79 a6 00 c0 22 26 02 1c f2 e2 e5 bf
       -2.0812855451826104 -0.683953337386985
0002b0 47 91 17 a5 9b a3 bc bf 1c 1a ac 13 30 ae d4 3f
       -0.1118714597756184 0.3231315796005292
0002c0 dd e8 51 8e 7c 94 e4 3f e3 a7 3d 52 ce 47 f4 bf
       0.6431257991491993 -1.2675307476551942
0002d0 65 b0 8a 85 38 16 96 bf 3b cf d0 04 d9 a1 c1 bf
       -0.021569140578023744 -0.13775170073642493
0002e0 0d 54 3c d9 7c 27 b7 bf cf c0 ef 66 ab 9a d7 bf
       -0.09044628432850761 -0.3688152795066459
0002f0 1e ee 61 30 2a ef c2 3f b4 7f 60 04 cd e3 be 3f
       0.14792373049191182 0.12066346508845421
000300 23 da 7f c6 58 36 d8 3f 7a 61 7e 2b fd fb 03 c0
       0.37831706413945393 -2.4980414770072317
000310 3d 87 b2 2f 67 37 11 c0 f6 b8 41 0e 83 3c e0 3f
       -4.304104562064649 0.5073867109729508
000320 96 1d 5e f1 7a 68 cf 3f b2 c9 e6 7e 31 d9 d0 3f
       0.24537598405389066 0.26325642960287177
000330 b4 78 cd b3 43 5a cf 3f 76 16 a2 3d 45 07 e7 bf
       0.2449421527807708 -0.7196375087521136
000340 6b b5 98 89 7d 03 d6 3f 5e 0d 95 aa da 76 d3 3f
       0.3439630359378813 0.3041292825548306
000350 bc f8 36 67 bc 06 eb bf fc 23 07 ec aa 58 de 3f
       -0.8445722595131637 0.4741618447265521
000360 0d 80 2a ff 69 d7 09 c0 e7 43 92 b1 ef 3a e2 bf
       -3.230182641491416 -0.5696943729582217
000370 ca 3e 42 e9 86 5b d4 bf 2c de 58 ed 4b 48 a4 3f
       -0.3180863645475084 0.039614079211272774
000380 a7 c8 96 02 fa 68 b4 3f 90 ea 03 9e 0c a6 e8 bf
       0.0797268158264922 -0.7702696882473266
000390 2f 42 50 97 4b a2 e6 3f 47 06 be 05 3d 6a c5 3f
       0.7073114352552404 0.16730463772187162
0003a0 98 5a 85 74 50 64 ec bf 2c c8 c6 ad fa 47 f0 3f
       -0.8872453952597708 1.0175730503219809
0003b0 86 72 47 9c cb 20 06 c0 d2 5f 71 a4 15 23 dd bf
       -2.766013356142426 -0.45526639040826666
0003c0 32 82 ea 1a 2e 25 b5 3f f0 df 58 bb b4 02 a5 bf
       0.08259857327585321 -0.04103627001717303
0003d0 a2 12 a4 f0 5b 70 93 3f c8 ec 79 f2 4e c0 bf bf
       0.01898330360656309 -0.12402814311819832
0003e0 9b c9 d4 b9 73 53 d4 3f 50 7b ec a4 ae f2 c7 3f
       0.3175935091741395 0.18709357312124064
0003f0 33 45 8e 28 00 06 d2 3f 37 13 f0 05 34 01 06 c0
       0.28161624870797936 -2.750587507618913
000400 2c f6 03 83 58 2b 10 c0 e5 62 f8 05 5f fa df 3f
       -4.042329833142087 0.49965644438775164
000410 81 fb 33 9d d7 cc d2 bf 08 e9 14 1e b4 ab c8 3f
       -0.29375257827626206 0.19273997753936833
000420 09 e0 70 d5 0e b0 dd 3f b1 cf 63 6b 20 f4 f0 bf
       0.4638707241424532 -1.0596012301366324
000430 aa 2c 51 70 37 00 e0 3f 2e 61 f4 0e 90 49 cc 3f
       0.5000264352505799 0.22099495630460225
000440 50 50 6c 8f fd 66 ed bf 59 8a b1 de f4 34 e6 3f
       -0.9188220788223678 0.6939644193156013
000450 4b a3 92 1b c4 ef 06 c0 74 ec f5 60 df c2 f1 bf
       -2.867073264515431 -1.1100763118290873
000460 9a 33 ad 6d 30 dc c7 3f 20 f8 3c da 12 54 c1 3f
       0.18640714030553057 0.13537822395477495
000470 0c 0e 26 e3 ff eb 85 bf 9c 06 3b 62 43 13 e8 bf
       -0.010704039687659005 -0.7523514669957936
000480 c4 2e e1 35 c3 5d e2 3f 03 12 cf 9e 92 22 d8 3f
       0.5739456226669621 0.3771101523273332
000490 08 a9 5b 08 a7 e4 e5 bf 4d 36 e1 e3 9f 31 d5 3f
       -0.6841616786234974 0.3311538434398685
0004a0 8e 32 75 18 e9 48 0e c0 d6 53 4c 6e fc 12 d2 bf
       -3.785600844456275 -0.28240881701759457
0004b0 6a 0a ae 06 10 2c c6 bf f8 fb 4b 38 3d d2 c8 bf
       -0.1732196838966787 -0.19391598938815924
0004c0 83 9e 87 e1 73 3b d1 bf 68 97 0a 90 f0 aa 59 bf
       -0.2692537023963057 -0.0015666341061346348
0004d0 3a 26 7a 16 11 82 e6 bf 2f 77 7a 9d 9a c6 d2 3f
       -0.703377288723636 0.29337182406185297
0004e0 4f fb fc 78 7f bf d7 3f 03 72 32 24 a1 81 f0 bf
       0.3710631066823468 -1.0316478170344687
0004f0 71 d1 4b b7 a6 01 ec 3f 08 5b 7d 06 0a 93 da 3f
       0.8752015666964735 0.41522455819851745
000500 29 8e 78 59 25 5d c0 3f fe 46 44 4f ea 97 e2 3f
       0.1278425871724818 0.5810443447282692
000510 53 35 5f 5b 2e 8c c9 3f 81 2c c0 7c 5f 12 a3 3f
       0.19959048711317937 0.037249549845079784
000520 52 57 65 d2 be 54 ea bf a0 89 28 0c 97 50 bc 3f
       -0.8228448972028934 0.11060470625719754
000530 38 79 17 50 7a 29 dd bf 15 ce 8b 4b 08 cb e1 3f
       -0.4556566030641025 0.5560342288503671
000540 cf df 1b ef 94 48 ec 3f f6 f1 fe a3 c4 2e f8 bf
       0.8838600797744166 -1.5114179998482746
000550 56 54 b8 d8 37 3d 97 3f 6e 1a cf a8 24 27 aa bf
       0.022694466211835206 -0.051079888922278424
000560 06 34 72 63 5c a3 e5 bf 59 58 d1 a5 1a 38 c3 bf
       -0.6761915151888622 -0.15014966103143726
000570 55 42 13 86 70 9f db 3f b7 2c 5a 13 02 df d6 3f
       0.4316064175918986 0.35736133470409065
000580 e6 f7 ff ed aa cd dc 3f a8 ef c5 73 0d df fc bf
       0.4500529598443549 -1.8044561884298478
000590 87 4a 7f 4e cd cd 04 c0 41 58 7e b0 59 e7 d3 3f
       -2.6004892475696724 0.31099550471970266
0005a0 00 ad ab e1 40 18 c7 3f bb a0 4d d1 43 94 e2 3f
       0.18042765635559732 0.5805987441972528
0005b0 1d 2a 56 cc 9c 01 da 3f 8e 0f 84 92 a4 e4 b7 3f
       0.4063484187578597 0.0933325631813757
0005c0 b3 a9 b8 68 00 f0 f8 bf 12 f8 73 80 ec 5f e0 bf
       -1.5585941401173897 -0.5117094525192007
0005d0 9f aa 14 6a 91 73 e7 bf e1 13 56 d3 f1 5d d9 3f
       -0.7328574249161938 0.3963589252310254
0005e0 88 2a f3 25 e0 fb e7 3f c7 ec 2d 16 9c 99 f7 bf
       0.7494965306480745 -1.4750023714430414
0005f0 cd 04 cc 32 5b be c5 bf a7 e3 bc eb c6 72 d2 bf
       -0.16987171154327144 -0.2882554342391423
000600 87 49 96 94 72 90 db bf 3d c0 6e 81 7a 59 d7 bf
       -0.43069138060050033 -0.36483633651642206
000610 50 9e b9 2f 32 2c cd 3f 7e d5 ae a6 ff 01 d0 3f
       0.22791125612569596 0.2501219871295105
000620 9c ca d4 8e f2 7b db 3f 96 15 ba 75 ee 3a fc bf
       0.42944015453682893 -1.7643875693041529
000630 42 53 73 e3 2b 17 10 c0 df 0d 53 16 50 74 e3 3f
       -4.0226283587588245 0.6079483448051483
000640 4c 76 82 99 f4 83 cd 3f 9a 00 fe 5a 55 bb d8 3f
       0.23058946128451152 0.3864339245410605
000650 e3 0c 08 a1 7a 1d cc 3f b2 22 87 b7 c2 58 c0 bf
       0.21964962828506093 -0.12770875893899852
000660 0d 3e d8 c3 69 9b e3 bf b1 53 15 47 c5 d8 c7 3f
       -0.6127213311282859 0.18630281420578634
000670 d8 97 90 0a 70 70 e0 bf 71 2d 85 92 31 81 e7 3f
       -0.5137253004402238 0.7345207082484376
000680 a1 a5 07 e9 fe e0 f1 3f 59 f3 9b 15 ab 7b f0 bf
       1.117430601380285 -1.0301924556835813
000690 63 40 cb 33 18 0f 93 bf 42 29 27 10 be 9f 87 bf
       -0.018612268601657777 -0.011535153263044
0006a0 63 78 a9 c5 1a b1 a2 bf 53 63 14 fd 5e 59 c9 3f
       -0.03650745070329788 0.198039887975734
0006b0 0f 5f 0b 76 cc dd f1 bf 4b 8a 7f 93 60 5c dc 3f
       -1.1166500674352766 0.4431382599270008
0006c0 64 ab 3f 70 1f f5 88 3f e1 01 da cb 5e 0a 06 c0
       0.012186284649904962 -2.755063622084194
0006d0 d8 bd a7 b0 96 64 d8 3f cd 1a e3 b9 cf 98 d3 3f
       0.38113944293487867 0.3062018695167524
0006e0 45 d4 03 6a 20 8c d4 3f ec b2 26 4a 7f 49 dc 3f
       0.3210526500036546 0.44198591462445225
0006f0 79 10 72 22 58 3c e5 bf 01 65 e8 ff b4 14 d6 3f
       -0.6636162445797843 0.34501385680194124
000700 71 c1 ca 4f b9 12 d0 3f f5 f5 a5 4a a4 8d d2 3f
       0.25114281456173787 0.28989512719985494
000710 a3 b6 97 d2 68 a8 d0 3f ae 9a af 21 5b b7 f1 bf
       0.26027889791189746 -1.1072646442277505
000720 2b 26 d4 68 3e c7 f9 bf ac a3 3b 29 ba f4 d0 3f
       -1.6111435026999839 0.2649369623819051
000730 36 ab 7d e3 eb bc c3 bf 49 a7 ae d8 8a 3d bb bf
       -0.15420292480424685 -0.10640781202405693
000740 03 8a 48 10 82 9f c2 bf 65 3d 35 f9 9f b2 ca 3f
       -0.14549279971204507 0.2085761992297918
000750 b0 88 21 e6 5e 17 f4 bf b0 fd a3 31 2f 5f b5 bf
       -1.2557057370654938 -0.0834836479370924
000760 61 75 6f 8b 88 0e be 3f f9 b0 48 8c a2 98 f4 bf
       0.11740926174339485 -1.2872643928376972
000770 53 f7 a4 e9 e3 8d e0 3f be 2c c7 5b 47 1b c0 3f
       0.5173205912940183 0.12583248120640705
000780 d6 fe 20 e8 3e 40 eb bf 73 a2 9f f7 83 ff d8 3f
       -0.8515924962775567 0.3905954282950354
000790 2a b7 fc 20 6e 92 e9 bf e4 81 c6 f0 54 2c e1 bf
       -0.7991247791557943 -0.5366615965504562
0007a0 7d 1e 18 04 a4 4d e0 3f 15 63 ce 78 f8 b1 dc 3f
       0.5094776229825154 0.4483624629734078
0007b0 82 36 6e 07 38 c2 06 c0 5a 86 25 32 66 4e e6 3f
       -2.84483342938512 0.6970702151704231
0007c0 9d b6 f3 f6 44 6e 05 c0 9c af fd 0b db 51 bb 3f
       -2.6788424771428496 0.10671776812313144
0007d0 9d f6 20 6d 5f 0e ad 3f 13 95 07 75 80 4f c0 bf
       0.0567502804483244 -0.12742620195710028
0007e0 85 1f 6d bd e7 9c ce 3f e1 f3 26 75 c2 2b d3 bf
       0.23916336774186334 -0.29954587402954586
0007f0 98 66 c5 4b 1b 8f e2 3f da a5 07 7e 82 71 c8 3f
       0.5799690704254372 0.19096404222300017

b_o f8 [10]
000000 d3 cb f1 66 e1 ae a2 bf 29 71 f2 a2 1e ee c1 bf
       -0.036490482155293734 -0.14007933575056455
000010 e2 f0 7a bd a4 93 5e 3f 73 92 d1 0c ac ba ad 3f
       0.0018662556448552571 0.05806481987454939
000020 e4 b5 78 f3 43 7f bd 3f 94 d3 d0 cb 45 26 a9 3f
       0.11522316640976943 0.04912012207970587
000030 90 eb 4d 08 fe 0b 98 bf 87 11 e2 1a 25 f6 b4 bf
       -0.023483247048243394 -0.0818808737404365
000040 c4 e6 48 1c 4a 10 bc 3f f0 75 7e 3a de 60 c3 3f
       0.10962355795427486 0.1513936792006656
